app/src/main/ml/kmeans_model.tflite (tflite, 57500 bytes, 1 tensors)

sub/y f4 [2000, 7]
000000 f1 24 b0 bd 45 bf 20 3c 4c 2e 97 bd 79 db 4d 3e
       -0.08600796 0.009811227 -0.07381877 0.20103253
000010 1e 66 14 be 50 34 d0 3d 2f 6d b9 bd 8b 59 b6 43
       -0.1449208 0.10166228 -0.09054028 364.69955
000020 98 3f 81 41 69 a1 e2 43 69 e0 1c 41 ec 4b 86 42
       16.156052 453.26102 9.804788 67.148285
000030 2f 57 b1 40 b2 7c dc 43 73 d3 ba 40 99 ad 08 41
       5.5418925 440.97418 5.8383117 8.542382
000040 a2 70 24 40 8d eb b4 3f 3e 2a 09 40 41 ac 29 41
       2.5693746 1.4134384 2.1432033 10.604554
000050 c0 89 41 40 ef 51 bb 3f 51 ff ae 3f ab be 44 3f
       3.0240326 1.4634379 1.3671666 0.76853436
000060 c1 c7 9c 3e de 84 24 3f d2 cc 05 40 9c a6 8d 3f
       0.3062115 0.6426524 2.0906262 1.106647
000070 8e 9b 14 3f a6 2b 2c be 28 5f fc 3e 48 a2 55 42
       0.5804986 -0.16813526 0.49291348 53.408478
000080 53 9e d1 3d 7f cd b0 be b4 09 54 3f b4 b6 eb 40
       0.10235276 -0.3453178 0.82827306 7.3660526
000090 26 5b 10 41 0a f9 c6 3f 08 aa b9 3e 09 b1 c3 41
       9.022253 1.5544751 0.36262536 24.461443
0000a0 59 e7 07 41 04 21 da 3f ad 06 aa 42 b4 66 5c 43
       8.493981 1.7041326 85.01304 220.40118
0000b0 54 c7 d7 bd 6c da c1 3f 2a 26 a9 41 be b4 d2 42
       -0.10536066 1.5144782 21.143635 105.35301
0000c0 bc 37 36 be 28 9b b0 be b3 76 c9 be a6 d2 b7 bd
       -0.17794698 -0.34493375 -0.39348373 -0.08975725
0000d0 48 9d 5a be dc 79 10 bf dc aa b8 be ce d3 2e be
       -0.2134906 -0.5643594 -0.36067855 -0.17072985
0000e0 20 0f 7d 3e 6e fd 11 3f 7b 1a a2 bd 70 02 c9 3d
       0.24712801 0.5702733 -0.07915207 0.09814918
0000f0 ab 79 29 3f 14 f5 87 3f 0a 99 3f bd 6a c0 17 42
       0.66201276 1.0621667 -0.04677681 37.937904
000100 1a e0 2b 42 80 26 a8 41 7a 8c 2f 41 a6 ce 93 42
       42.96885 21.018799 10.971796 73.90361
000110 a2 0a 8b 42 fc 89 8c 41 f1 1a 9d 3e 29 1e ba be
       69.52077 17.567375 0.30684617 -0.36351135
000120 8e ab 3e 3f 30 09 0e 41 4d 20 df be d7 c2 d8 be
       0.7448052 8.877243 -0.4357933 -0.4233615
000130 56 cd 18 3f 58 ad 0d bd 74 c1 93 bd 4c 00 a5 bd
       0.5968832 -0.03458914 -0.07214633 -0.08056697
000140 53 e4 08 be 90 3b 7a 3f 82 1e 3d be 05 b3 0c be
       -0.13368349 0.97747135 -0.18468669 -0.13740166
000150 4f d6 5a 40 93 87 8a 40 29 23 99 3f 14 58 d6 3f
       3.4193304 4.3290496 1.1963855 1.6745629
000160 83 5e b0 3f d7 a9 7b 40 ce d4 08 40 f9 ab 65 41
       1.3778843 3.9322412 2.1379886 14.3544855
000170 d0 0b 2a 3e c0 17 90 41 24 18 5e 43 dd cf 27 40
       0.16606069 18.011597 222.0943 2.622062
000180 d8 22 ae 3e 9b 44 8b 41 be b5 af 41 ad 20 84 41
       0.3401096 17.408499 21.963741 16.515955
000190 aa df 86 41 5e f9 88 40 d6 19 e1 40 bb 23 b9 41
       16.859211 4.2804403 7.034404 23.142447
0001a0 ef 69 96 41 48 02 84 3f 15 55 8c 3f 65 7c 0e 3e
       18.801725 1.0313196 1.0963465 0.1391464
0001b0 ac 3c 9f 3f 6c 61 43 40 5f 74 4e 3f 84 9a b8 3e
       1.244039 3.0528212 0.8064632 0.36055386
0001c0 2e c7 8c be 47 ff d6 be 05 11 a0 bd 15 f9 0d 42
       -0.27495712 -0.41991636 -0.07815746 35.493244
0001d0 04 1f d8 be 57 cc e3 be a1 a6 f6 bd cb fa fd 40
       -0.42211163 -0.44491836 -0.12043501 7.9368644
0001e0 6a 74 a9 41 54 c7 d7 bd aa 14 b1 3c fb 56 ac be
       21.181843 -0.10536066 0.021616299 -0.3366011
0001f0 ef df 57 41 5e 0b b0 3b 10 65 6b be 9f 7b 56 be
       13.492171 0.005372449 -0.22987771 -0.20945595
000200 cc 5a a0 bd 48 8c 3c be f3 c7 dd be 33 0a ba be
       -0.07829818 -0.18412888 -0.43316612 -0.36335906
000210 30 ae fc bd 19 62 3a 41 11 4b 65 41 d2 4d 22 3d
       -0.12337911 11.64895 14.330827 0.039624996
000220 44 6f 92 42 30 dd 62 42 1a a1 3e 41 1b 26 88 3d
       73.217316 56.716003 11.914331 0.06647893
000230 5a f6 c7 be 47 73 ed be 54 c7 d7 bd 41 ca dd 42
       -0.3905514 -0.46377012 -0.10536066 110.89503
000240 21 b5 0a bf e4 9b ed be 7a bb 42 be de 53 7d 40
       -0.5418263 -0.46407998 -0.19016829 3.9582438
000250 f8 fc c4 40 fb cf ca 3f d8 00 bd 3f 9c 71 ab 3f
       6.15588 1.5844721 1.4765882 1.3394046
000260 59 e7 07 41 c4 1b fe 3f b3 70 fa 3d db f2 46 3e
       8.493981 1.9852223 0.12228527 0.1942858
000270 8e 33 d8 3c 44 01 d1 bd 13 cd b0 bd 56 04 e6 3e
       0.02639177 -0.102053195 -0.08632865 0.44925183
000280 78 a9 a0 3d 17 5f 8d 41 e6 4d f0 41 c3 09 5d 3e
       0.078448236 17.67143 30.038036 0.21585755
000290 6f 4f 25 40 60 3d 74 42 0b b1 da 41 f8 30 28 3e
       2.5829732 61.059937 27.336447 0.1642493
0002a0 0d 7b 9e 40 31 bd d1 40 dc 87 10 3f 95 8c 86 40
       4.952521 6.5543447 0.56457305 4.204661
0002b0 96 de 50 41 47 8f c4 40 ab d7 ba 3f f2 6c 00 42
       13.054342 6.14249 1.4597067 32.10639
0002c0 5c 76 5c 42 ad 18 6f 3d 63 f4 ad 40 e4 b6 de 42
       55.115585 0.058373142 5.4360824 111.35721
0002d0 5c 4a 48 42 74 2b 00 bd 82 ac ec 3f be 29 3c 40
       50.072617 -0.03129144 1.8490145 2.9400477
0002e0 a9 71 54 3f 1a 16 f4 3d 73 05 76 3f b0 6e 5c 40
       0.8298593 0.11918278 0.96102065 3.4442558
0002f0 5c 78 58 3f 97 e4 be 3e 98 6c 36 3f 18 65 9a bd
       0.84558654 0.37283775 0.7125945 -0.07538813
000300 7e e9 88 3c 3d 7f e5 3f 43 e3 41 3f 40 f2 e6 bd
       0.0167129 1.7929455 0.757374 -0.11276674
000310 ed 5d 21 bd 31 7e c1 bd b7 f2 8f bd 98 3d 93 3d
       -0.039396215 -0.09447897 -0.07028716 0.071894825
000320 fc eb c2 3e 34 e1 99 bd 52 05 59 bd 72 59 bf 41
       0.38070667 -0.07513657 -0.05298359 23.918674
000330 41 32 13 42 29 32 37 41 59 45 06 40 33 09 b2 40
       36.799076 11.449746 2.0979826 5.563623
000340 5f 68 7d 42 9f 90 3d 41 1c fc 00 40 b4 55 50 40
       63.351925 11.847808 2.0153875 3.255231
000350 f8 48 17 3e 9a f8 d8 3f c5 ef ca 40 83 c7 45 40
       0.14773929 1.6950867 6.3417687 3.0903022
000360 24 d9 1f 3e cf 98 0c 3f 49 cc b1 3c dd 6b 9e 3c
       0.15610176 0.5492067 0.021703856 0.019338543
000370 c6 3c d8 3f 9c c4 07 3f 64 82 26 be be 11 17 3f
       1.6893547 0.5303438 -0.16260678 0.5901145
000380 aa ac 62 3f 09 04 1b 40 43 4c 85 bd 35 a0 25 3c
       0.88544714 2.4221213 -0.065086864 0.010108997
000390 02 96 68 3e 3e a5 21 40 56 d4 82 bd a9 6d 04 bd
       0.22713473 2.5257106 -0.06388156 -0.032331143
0003a0 73 38 b2 be 9b 59 28 3e d4 62 8d 41 b4 da 99 be
       -0.34808692 0.16440432 17.673256 -0.3004967
0003b0 14 64 d2 be bc 50 33 3e b5 96 29 bd 70 6a 70 be
       -0.4109198 0.17511266 -0.04140349 -0.23478103
0003c0 8f fa 7a bd 4c ec f9 bd 50 aa 4e be 46 b3 3e be
       -0.061274108 -0.12203273 -0.20182157 -0.18623075
0003d0 9c 38 ab 3d 05 f3 ce 3f 9d d8 11 be 76 c8 12 40
       0.08360407 1.6167914 -0.14242788 2.2934852
0003e0 74 d0 3e bd fa f8 95 bd fd ef 82 be d5 26 0b 40
       -0.046585515 -0.07322879 -0.25573722 2.174245
0003f0 89 ab ea 40 d3 0e 14 41 54 c7 d7 bd 84 b0 62 3f
       7.3334394 9.253619 -0.10536066 0.8855059
